…
I0121 23:13:55.661384 22726 upgrade_proto.cpp:53] Attempting to upgrade input file specified using deprecated V1LayerParameter: train_CIFAR10_48.prototxt
I0121 23:13:55.661665 22726 upgrade_proto.cpp:61] Successfully upgraded file specified using deprecated V1LayerParameter
I0121 23:13:55.661867 22726 net.cpp:51] Initializing net from parameters: 
name: "KevinNet_CIFAR10"
state {
  phase: TRAIN
  level: 0
  stage: ""
}
layer {
  name: "data"
  type: "Data"
  top: "data"
  top: "label"
  transform_param {
    mirror: true
    crop_size: 227
    mean_file: "../../data/ilsvrc12/imagenet_mean.binaryproto"
  }
  data_param {
    source: "cifar10_train_leveldb"
    batch_size: 32
  }
}
layer {
  name: "conv1"
  type: "Convolution"
  bottom: "data"
  top: "conv1"
  param {
    lr_mult: 1
    decay_mult: 1
  }
  param {
    lr_mult: 2
    decay_mult: 0
  }
  convolution_param {
    num_output: 96
    kernel_size: 11
    stride: 4
    weight_filler {
      type: "gaussian"
      std: 0.01
    }
    bias_filler {
      type: "constant"
      value: 0
    }
  }
}
layer {
  name: "relu1"
  type: "ReLU"
  bottom: "conv1"
  top: "conv1"
}
layer {
  name: "pool1"
  type: "Pooling"
  bottom: "conv1"
  top: "pool1"
  pooling_param {
    pool: MAX
    kernel_size: 3
    stride: 2
  }
}
layer {
  name: "norm1"
  type: "LRN"
  bottom: "pool1"
  top: "norm1"
  lrn_param {
    local_size: 5
    alpha: 0.0001
    beta: 0.75
  }
}
layer {
  name: "conv2"
  type: "Convolution"
  bottom: "norm1"
  top: "conv2"
  param {
    lr_mult: 1
    decay_mult: 1
  }
  param {
    lr_mult: 2
    decay_mult: 0
  }
  convolution_param {
    num_output: 256
    pad: 2
    kernel_size: 5
    group: 2
    weight_filler {
      type: "gaussian"
      std: 0.01
    }
    bias_filler {
      type: "constant"
      value: 1
    }
  }
}
layer {
  name: "relu2"
  type: "ReLU"
  bottom: "conv2"
  top: "conv2"
}
layer {
  name: "pool2"
  type: "Pooling"
  bottom: "conv2"
  top: "pool2"
  pooling_param {
    pool: MAX
    kernel_size: 3
    stride: 2
  }
}
layer {
  name: "norm2"
  type: "LRN"
  bottom: "pool2"
  top: "norm2"
  lrn_param {
    local_size: 5
    alpha: 0.0001
    beta: 0.75
  }
}
layer {
  name: "conv3"
  type: "Convolution"
  bottom: "norm2"
  top: "conv3"
  param {
    lr_mult: 1
    decay_mult: 1
  }
  param {
    lr_mult: 2
    decay_mult: 0
  }
  convolution_param {
    num_output: 384
    pad: 1
    kernel_size: 3
    weight_filler {
      type: "gaussian"
      std: 0.01
    }
    bias_filler {
      type: "constant"
      value: 0
    }
  }
}
layer {
  name: "relu3"
  type: "ReLU"
  bottom: "conv3"
  top: "conv3"
}
layer {
  name: "conv4"
  type: "Convolution"
  bottom: "conv3"
  top: "conv4"
  param {
    lr_mult: 1
    decay_mult: 1
  }
  param {
    lr_mult: 2
    decay_mult: 0
  }
  convolution_param {
    num_output: 384
    pad: 1
    kernel_size: 3
    group: 2
    weight_filler {
      type: "gaussian"
      std: 0.01
    }
    bias_filler {
      type: "constant"
      value: 1
    }
  }
}
layer {
  name: "relu4"
  type: "ReLU"
  bottom: "conv4"
  top: "conv4"
}
layer {
  name: "conv5"
  type: "Convolution"
  bottom: "conv4"
  top: "conv5"
  param {
    lr_mult: 1
    decay_mult: 1
  }
  param {
    lr_mult: 2
    decay_mult: 0
  }
  convolution_param {
    num_output: 256
    pad: 1
    kernel_size: 3
    group: 2
    weight_filler {
      type: "gaussian"
      std: 0.01
    }
    bias_filler {
      type: "constant"
      value: 1
    }
  }
}
layer {
  name: "relu5"
  type: "ReLU"
  bottom: "conv5"
  top: "conv5"
}
layer {
  name: "pool5"
  type: "Pooling"
  bottom: "conv5"
  top: "pool5"
  pooling_param {
    pool: MAX
    kernel_size: 3
    stride: 2
  }
}
layer {
  name: "fc6"
  type: "InnerProduct"
  bottom: "pool5"
  top: "fc6"
  param {
    lr_mult: 1
    decay_mult: 1
  }
  param {
    lr_mult: 2
    decay_mult: 0
  }
  inner_product_param {
    num_output: 4096
    weight_filler {
      type: "gaussian"
      std: 0.005
    }
    bias_filler {
      type: "constant"
      value: 1
    }
  }
}
layer {
  name: "relu6"
  type: "ReLU"
  bottom: "fc6"
  top: "fc6"
}
layer {
  name: "drop6"
  type: "Dropout"
  bottom: "fc6"
  top: "fc6"
  dropout_param {
    dropout_ratio: 0.5
  }
}
layer {
  name: "fc7"
  type: "InnerProduct"
  bottom: "fc6"
  top: "fc7"
  param {
    lr_mult: 1
    decay_mult: 1
  }
  param {
    lr_mult: 2
    decay_mult: 0
  }
  inner_product_param {
    num_output: 4096
    weight_filler {
      type: "gaussian"
      std: 0.005
    }
    bias_filler {
      type: "constant"
      value: 1
    }
  }
}
layer {
  name: "relu7"
  type: "ReLU"
  bottom: "fc7"
  top: "fc7"
}
layer {
  name: "drop7"
  type: "Dropout"
  bottom: "fc7"
  top: "fc7"
  dropout_param {
    dropout_ratio: 0.5
  }
}
layer {
  name: "fc8_kevin"
  type: "InnerProduct"
  bottom: "fc7"
  top: "fc8_kevin"
  param {
    lr_mult: 1
    decay_mult: 1
  }
  param {
    lr_mult: 2
    decay_mult: 0
  }
  inner_product_param {
    num_output: 48
    weight_filler {
      type: "gaussian"
      std: 0.005
    }
    bias_filler {
      type: "constant"
      value: 1
    }
  }
}
layer {
  name: "fc8_kevin_encode"
  type: "Sigmoid"
  bottom: "fc8_kevin"
  top: "fc8_kevin_encode"
}
layer {
  name: "fc8_pascal"
  type: "InnerProduct"
  bottom: "fc8_kevin_encode"
  top: "fc8_pascal"
  param {
    lr_mult: 10
    decay_mult: 1
  }
  param {
    lr_mult: 20
    decay_mult: 0
  }
  inner_product_param {
    num_output: 10
    weight_filler {
      type: "gaussian"
      std: 0.01
    }
    bias_filler {
      type: "constant"
      value: 0
    }
  }
}
layer {
  name: "loss"
  type: "SoftmaxWithLoss"
  bottom: "fc8_pascal"
  bottom: "label"
}
I0121 23:13:55.662878 22726 layer_factory.hpp:77] Creating layer data
I0121 23:14:01.287794 22726 db_leveldb.cpp:18] Opened leveldb cifar10_train_leveldb
I0121 23:14:01.337376 22726 net.cpp:84] Creating Layer data
I0121 23:14:01.337409 22726 net.cpp:380] data -> data
I0121 23:14:01.337445 22726 net.cpp:380] data -> label
I0121 23:14:01.337775 22726 data_transformer.cpp:27] Loading mean file from: ../../data/ilsvrc12/imagenet_mean.binaryproto
I0121 23:14:01.354229 22726 data_layer.cpp:45] output data size: 32,3,227,227
I0121 23:14:01.387791 22726 net.cpp:122] Setting up data
I0121 23:14:01.387816 22726 net.cpp:129] Top shape: 32 3 227 227 (4946784)
I0121 23:14:01.387821 22726 net.cpp:129] Top shape: 32 (32)
I0121 23:14:01.387825 22726 net.cpp:137] Memory required for data: 19787264
I0121 23:14:01.387872 22726 layer_factory.hpp:77] Creating layer conv1
I0121 23:14:01.388052 22726 net.cpp:84] Creating Layer conv1
I0121 23:14:01.388062 22726 net.cpp:406] conv1 <- data
I0121 23:14:01.388078 22726 net.cpp:380] conv1 -> conv1
I0121 23:14:01.747319 22726 net.cpp:122] Setting up conv1
I0121 23:14:01.747354 22726 net.cpp:129] Top shape: 32 96 55 55 (9292800)
I0121 23:14:01.747359 22726 net.cpp:137] Memory required for data: 56958464
I0121 23:14:01.747392 22726 layer_factory.hpp:77] Creating layer relu1
I0121 23:14:01.747404 22726 net.cpp:84] Creating Layer relu1
I0121 23:14:01.747422 22726 net.cpp:406] relu1 <- conv1
I0121 23:14:01.747428 22726 net.cpp:367] relu1 -> conv1 (in-place)
I0121 23:14:01.748023 22726 net.cpp:122] Setting up relu1
I0121 23:14:01.748037 22726 net.cpp:129] Top shape: 32 96 55 55 (9292800)
I0121 23:14:01.748039 22726 net.cpp:137] Memory required for data: 94129664
I0121 23:14:01.748044 22726 layer_factory.hpp:77] Creating layer pool1
I0121 23:14:01.748051 22726 net.cpp:84] Creating Layer pool1
I0121 23:14:01.748065 22726 net.cpp:406] pool1 <- conv1
I0121 23:14:01.748071 22726 net.cpp:380] pool1 -> pool1
I0121 23:14:01.748314 22726 net.cpp:122] Setting up pool1
I0121 23:14:01.748334 22726 net.cpp:129] Top shape: 32 96 27 27 (2239488)
I0121 23:14:01.748337 22726 net.cpp:137] Memory required for data: 103087616
I0121 23:14:01.748340 22726 layer_factory.hpp:77] Creating layer norm1
I0121 23:14:01.748349 22726 net.cpp:84] Creating Layer norm1
I0121 23:14:01.748353 22726 net.cpp:406] norm1 <- pool1
I0121 23:14:01.748356 22726 net.cpp:380] norm1 -> norm1
I0121 23:14:01.748677 22726 net.cpp:122] Setting up norm1
I0121 23:14:01.748687 22726 net.cpp:129] Top shape: 32 96 27 27 (2239488)
I0121 23:14:01.748699 22726 net.cpp:137] Memory required for data: 112045568
I0121 23:14:01.748702 22726 layer_factory.hpp:77] Creating layer conv2
I0121 23:14:01.748711 22726 net.cpp:84] Creating Layer conv2
I0121 23:14:01.748714 22726 net.cpp:406] conv2 <- norm1
I0121 23:14:01.748719 22726 net.cpp:380] conv2 -> conv2
I0121 23:14:01.753418 22726 net.cpp:122] Setting up conv2
I0121 23:14:01.753432 22726 net.cpp:129] Top shape: 32 256 27 27 (5971968)
I0121 23:14:01.753434 22726 net.cpp:137] Memory required for data: 135933440
I0121 23:14:01.753443 22726 layer_factory.hpp:77] Creating layer relu2
I0121 23:14:01.753449 22726 net.cpp:84] Creating Layer relu2
I0121 23:14:01.753464 22726 net.cpp:406] relu2 <- conv2
I0121 23:14:01.753468 22726 net.cpp:367] relu2 -> conv2 (in-place)
I0121 23:14:01.753664 22726 net.cpp:122] Setting up relu2
I0121 23:14:01.753672 22726 net.cpp:129] Top shape: 32 256 27 27 (5971968)
I0121 23:14:01.753684 22726 net.cpp:137] Memory required for data: 159821312
I0121 23:14:01.753686 22726 layer_factory.hpp:77] Creating layer pool2
I0121 23:14:01.753692 22726 net.cpp:84] Creating Layer pool2
I0121 23:14:01.753695 22726 net.cpp:406] pool2 <- conv2
I0121 23:14:01.753698 22726 net.cpp:380] pool2 -> pool2
I0121 23:14:01.753731 22726 net.cpp:122] Setting up pool2
I0121 23:14:01.753736 22726 net.cpp:129] Top shape: 32 256 13 13 (1384448)
I0121 23:14:01.753737 22726 net.cpp:137] Memory required for data: 165359104
I0121 23:14:01.753739 22726 layer_factory.hpp:77] Creating layer norm2
I0121 23:14:01.753756 22726 net.cpp:84] Creating Layer norm2
I0121 23:14:01.753758 22726 net.cpp:406] norm2 <- pool2
I0121 23:14:01.753772 22726 net.cpp:380] norm2 -> norm2
I0121 23:14:01.754351 22726 net.cpp:122] Setting up norm2
I0121 23:14:01.754360 22726 net.cpp:129] Top shape: 32 256 13 13 (1384448)
I0121 23:14:01.754364 22726 net.cpp:137] Memory required for data: 170896896
I0121 23:14:01.754365 22726 layer_factory.hpp:77] Creating layer conv3
I0121 23:14:01.754384 22726 net.cpp:84] Creating Layer conv3
I0121 23:14:01.754389 22726 net.cpp:406] conv3 <- norm2
I0121 23:14:01.754393 22726 net.cpp:380] conv3 -> conv3
I0121 23:14:01.764211 22726 net.cpp:122] Setting up conv3
I0121 23:14:01.764230 22726 net.cpp:129] Top shape: 32 384 13 13 (2076672)
I0121 23:14:01.764233 22726 net.cpp:137] Memory required for data: 179203584
I0121 23:14:01.764267 22726 layer_factory.hpp:77] Creating layer relu3
I0121 23:14:01.764276 22726 net.cpp:84] Creating Layer relu3
I0121 23:14:01.764281 22726 net.cpp:406] relu3 <- conv3
I0121 23:14:01.764286 22726 net.cpp:367] relu3 -> conv3 (in-place)
I0121 23:14:01.764444 22726 net.cpp:122] Setting up relu3
I0121 23:14:01.764451 22726 net.cpp:129] Top shape: 32 384 13 13 (2076672)
I0121 23:14:01.764454 22726 net.cpp:137] Memory required for data: 187510272
I0121 23:14:01.764467 22726 layer_factory.hpp:77] Creating layer conv4
I0121 23:14:01.764475 22726 net.cpp:84] Creating Layer conv4
I0121 23:14:01.764479 22726 net.cpp:406] conv4 <- conv3
I0121 23:14:01.764484 22726 net.cpp:380] conv4 -> conv4
I0121 23:14:01.772779 22726 net.cpp:122] Setting up conv4
I0121 23:14:01.772812 22726 net.cpp:129] Top shape: 32 384 13 13 (2076672)
I0121 23:14:01.772819 22726 net.cpp:137] Memory required for data: 195816960
I0121 23:14:01.772830 22726 layer_factory.hpp:77] Creating layer relu4
I0121 23:14:01.772840 22726 net.cpp:84] Creating Layer relu4
I0121 23:14:01.772842 22726 net.cpp:406] relu4 <- conv4
I0121 23:14:01.772850 22726 net.cpp:367] relu4 -> conv4 (in-place)
I0121 23:14:01.773043 22726 net.cpp:122] Setting up relu4
I0121 23:14:01.773053 22726 net.cpp:129] Top shape: 32 384 13 13 (2076672)
I0121 23:14:01.773066 22726 net.cpp:137] Memory required for data: 204123648
I0121 23:14:01.773069 22726 layer_factory.hpp:77] Creating layer conv5
I0121 23:14:01.773080 22726 net.cpp:84] Creating Layer conv5
I0121 23:14:01.773084 22726 net.cpp:406] conv5 <- conv4
I0121 23:14:01.773092 22726 net.cpp:380] conv5 -> conv5
I0121 23:14:01.781302 22726 net.cpp:122] Setting up conv5
I0121 23:14:01.781334 22726 net.cpp:129] Top shape: 32 256 13 13 (1384448)
I0121 23:14:01.781338 22726 net.cpp:137] Memory required for data: 209661440
I0121 23:14:01.781352 22726 layer_factory.hpp:77] Creating layer relu5
I0121 23:14:01.781373 22726 net.cpp:84] Creating Layer relu5
I0121 23:14:01.781378 22726 net.cpp:406] relu5 <- conv5
I0121 23:14:01.781383 22726 net.cpp:367] relu5 -> conv5 (in-place)
I0121 23:14:01.781960 22726 net.cpp:122] Setting up relu5
I0121 23:14:01.781972 22726 net.cpp:129] Top shape: 32 256 13 13 (1384448)
I0121 23:14:01.781975 22726 net.cpp:137] Memory required for data: 215199232
I0121 23:14:01.781980 22726 layer_factory.hpp:77] Creating layer pool5
I0121 23:14:01.781997 22726 net.cpp:84] Creating Layer pool5
I0121 23:14:01.782002 22726 net.cpp:406] pool5 <- conv5
I0121 23:14:01.782007 22726 net.cpp:380] pool5 -> pool5
I0121 23:14:01.782063 22726 net.cpp:122] Setting up pool5
I0121 23:14:01.782068 22726 net.cpp:129] Top shape: 32 256 6 6 (294912)
I0121 23:14:01.782070 22726 net.cpp:137] Memory required for data: 216378880
I0121 23:14:01.782073 22726 layer_factory.hpp:77] Creating layer fc6
I0121 23:14:01.782091 22726 net.cpp:84] Creating Layer fc6
I0121 23:14:01.782095 22726 net.cpp:406] fc6 <- pool5
I0121 23:14:01.782099 22726 net.cpp:380] fc6 -> fc6
I0121 23:14:02.093896 22726 net.cpp:122] Setting up fc6
I0121 23:14:02.093936 22726 net.cpp:129] Top shape: 32 4096 (131072)
I0121 23:14:02.093941 22726 net.cpp:137] Memory required for data: 216903168
I0121 23:14:02.093951 22726 layer_factory.hpp:77] Creating layer relu6
I0121 23:14:02.093972 22726 net.cpp:84] Creating Layer relu6
I0121 23:14:02.093978 22726 net.cpp:406] relu6 <- fc6
I0121 23:14:02.093986 22726 net.cpp:367] relu6 -> fc6 (in-place)
I0121 23:14:02.094225 22726 net.cpp:122] Setting up relu6
I0121 23:14:02.094234 22726 net.cpp:129] Top shape: 32 4096 (131072)
I0121 23:14:02.094247 22726 net.cpp:137] Memory required for data: 217427456
I0121 23:14:02.094250 22726 layer_factory.hpp:77] Creating layer drop6
I0121 23:14:02.094256 22726 net.cpp:84] Creating Layer drop6
I0121 23:14:02.094259 22726 net.cpp:406] drop6 <- fc6
I0121 23:14:02.094274 22726 net.cpp:367] drop6 -> fc6 (in-place)
I0121 23:14:02.094305 22726 net.cpp:122] Setting up drop6
I0121 23:14:02.094321 22726 net.cpp:129] Top shape: 32 4096 (131072)
I0121 23:14:02.094324 22726 net.cpp:137] Memory required for data: 217951744
I0121 23:14:02.094364 22726 layer_factory.hpp:77] Creating layer fc7
I0121 23:14:02.094370 22726 net.cpp:84] Creating Layer fc7
I0121 23:14:02.094384 22726 net.cpp:406] fc7 <- fc6
I0121 23:14:02.094389 22726 net.cpp:380] fc7 -> fc7
I0121 23:14:02.233271 22726 net.cpp:122] Setting up fc7
I0121 23:14:02.233304 22726 net.cpp:129] Top shape: 32 4096 (131072)
I0121 23:14:02.233307 22726 net.cpp:137] Memory required for data: 218476032
I0121 23:14:02.233317 22726 layer_factory.hpp:77] Creating layer relu7
I0121 23:14:02.233336 22726 net.cpp:84] Creating Layer relu7
I0121 23:14:02.233340 22726 net.cpp:406] relu7 <- fc7
I0121 23:14:02.233347 22726 net.cpp:367] relu7 -> fc7 (in-place)
I0121 23:14:02.233592 22726 net.cpp:122] Setting up relu7
I0121 23:14:02.233613 22726 net.cpp:129] Top shape: 32 4096 (131072)
I0121 23:14:02.233614 22726 net.cpp:137] Memory required for data: 219000320
I0121 23:14:02.233618 22726 layer_factory.hpp:77] Creating layer drop7
I0121 23:14:02.233635 22726 net.cpp:84] Creating Layer drop7
I0121 23:14:02.233639 22726 net.cpp:406] drop7 <- fc7
I0121 23:14:02.233644 22726 net.cpp:367] drop7 -> fc7 (in-place)
I0121 23:14:02.233687 22726 net.cpp:122] Setting up drop7
I0121 23:14:02.233693 22726 net.cpp:129] Top shape: 32 4096 (131072)
I0121 23:14:02.233706 22726 net.cpp:137] Memory required for data: 219524608
I0121 23:14:02.233708 22726 layer_factory.hpp:77] Creating layer fc8_kevin
I0121 23:14:02.233728 22726 net.cpp:84] Creating Layer fc8_kevin
I0121 23:14:02.233732 22726 net.cpp:406] fc8_kevin <- fc7
I0121 23:14:02.233750 22726 net.cpp:380] fc8_kevin -> fc8_kevin
I0121 23:14:02.235942 22726 net.cpp:122] Setting up fc8_kevin
I0121 23:14:02.235952 22726 net.cpp:129] Top shape: 32 48 (1536)
I0121 23:14:02.235965 22726 net.cpp:137] Memory required for data: 219530752
I0121 23:14:02.235970 22726 layer_factory.hpp:77] Creating layer fc8_kevin_encode
I0121 23:14:02.235978 22726 net.cpp:84] Creating Layer fc8_kevin_encode
I0121 23:14:02.235992 22726 net.cpp:406] fc8_kevin_encode <- fc8_kevin
I0121 23:14:02.236001 22726 net.cpp:380] fc8_kevin_encode -> fc8_kevin_encode
I0121 23:14:02.236361 22726 net.cpp:122] Setting up fc8_kevin_encode
I0121 23:14:02.236371 22726 net.cpp:129] Top shape: 32 48 (1536)
I0121 23:14:02.236382 22726 net.cpp:137] Memory required for data: 219536896
I0121 23:14:02.236385 22726 layer_factory.hpp:77] Creating layer fc8_pascal
I0121 23:14:02.236405 22726 net.cpp:84] Creating Layer fc8_pascal
I0121 23:14:02.236409 22726 net.cpp:406] fc8_pascal <- fc8_kevin_encode
I0121 23:14:02.236415 22726 net.cpp:380] fc8_pascal -> fc8_pascal
I0121 23:14:02.236552 22726 net.cpp:122] Setting up fc8_pascal
I0121 23:14:02.236558 22726 net.cpp:129] Top shape: 32 10 (320)
I0121 23:14:02.236572 22726 net.cpp:137] Memory required for data: 219538176
I0121 23:14:02.236582 22726 layer_factory.hpp:77] Creating layer loss
I0121 23:14:02.236843 22726 net.cpp:84] Creating Layer loss
I0121 23:14:02.236850 22726 net.cpp:406] loss <- fc8_pascal
I0121 23:14:02.236862 22726 net.cpp:406] loss <- label
I0121 23:14:02.236870 22726 net.cpp:380] loss -> (automatic)
I0121 23:14:02.237036 22726 layer_factory.hpp:77] Creating layer loss
…
I0121 23:14:02.256852 22726 upgrade_proto.cpp:61] Successfully upgraded file specified using deprecated V1LayerParameter
I0121 23:14:02.256881 22726 solver.cpp:172] Creating test net (#0) specified by test_net file: test_CIFAR10_48.prototxt
I0121 23:14:02.257051 22726 net.cpp:51] Initializing net from parameters: 
name: "KevinNet_CIFAR10"
state {
  phase: TEST
}
layer {
  name: "data"
  type: "Data"
  top: "data"
  top: "label"
  transform_param {
    mirror: true
    crop_size: 227
    mean_file: "../../data/ilsvrc12/imagenet_mean.binaryproto"
  }
  data_param {
    source: "cifar10_val_leveldb"
    batch_size: 32
  }
}
layer {
  name: "conv1"
  type: "Convolution"
  bottom: "data"
  top: "conv1"
  param {
    lr_mult: 1
    decay_mult: 1
  }
  param {
    lr_mult: 2
    decay_mult: 0
  }
  convolution_param {
    num_output: 96
    kernel_size: 11
    stride: 4
    weight_filler {
      type: "gaussian"
      std: 0.01
    }
    bias_filler {
      type: "constant"
      value: 0
    }
  }
}
layer {
  name: "relu1"
  type: "ReLU"
  bottom: "conv1"
  top: "conv1"
}
layer {
  name: "pool1"
  type: "Pooling"
  bottom: "conv1"
  top: "pool1"
  pooling_param {
    pool: MAX
    kernel_size: 3
    stride: 2
  }
}
layer {
  name: "norm1"
  type: "LRN"
  bottom: "pool1"
  top: "norm1"
  lrn_param {
    local_size: 5
    alpha: 0.0001
    beta: 0.75
  }
}
layer {
  name: "conv2"
  type: "Convolution"
  bottom: "norm1"
  top: "conv2"
  param {
    lr_mult: 1
    decay_mult: 1
  }
  param {
    lr_mult: 2
    decay_mult: 0
  }
  convolution_param {
    num_output: 256
    pad: 2
    kernel_size: 5
    group: 2
    weight_filler {
      type: "gaussian"
      std: 0.01
    }
    bias_filler {
      type: "constant"
      value: 1
    }
  }
}
layer {
  name: "relu2"
  type: "ReLU"
  bottom: "conv2"
  top: "conv2"
}
layer {
  name: "pool2"
  type: "Pooling"
  bottom: "conv2"
  top: "pool2"
  pooling_param {
    pool: MAX
    kernel_size: 3
    stride: 2
  }
}
layer {
  name: "norm2"
  type: "LRN"
  bottom: "pool2"
  top: "norm2"
  lrn_param {
    local_size: 5
    alpha: 0.0001
    beta: 0.75
  }
}
layer {
  name: "conv3"
  type: "Convolution"
  bottom: "norm2"
  top: "conv3"
  param {
    lr_mult: 1
    decay_mult: 1
  }
  param {
    lr_mult: 2
    decay_mult: 0
  }
  convolution_param {
    num_output: 384
    pad: 1
    kernel_size: 3
    weight_filler {
      type: "gaussian"
      std: 0.01
    }
    bias_filler {
      type: "constant"
      value: 0
    }
  }
}
layer {
  name: "relu3"
  type: "ReLU"
  bottom: "conv3"
  top: "conv3"
}
layer {
  name: "conv4"
  type: "Convolution"
  bottom: "conv3"
  top: "conv4"
  param {
    lr_mult: 1
    decay_mult: 1
  }
  param {
    lr_mult: 2
    decay_mult: 0
  }
  convolution_param {
    num_output: 384
    pad: 1
    kernel_size: 3
    group: 2
    weight_filler {
      type: "gaussian"
      std: 0.01
    }
    bias_filler {
      type: "constant"
      value: 1
    }
  }
}
layer {
  name: "relu4"
  type: "ReLU"
  bottom: "conv4"
  top: "conv4"
}
layer {
  name: "conv5"
  type: "Convolution"
  bottom: "conv4"
  top: "conv5"
  param {
    lr_mult: 1
    decay_mult: 1
  }
  param {
    lr_mult: 2
    decay_mult: 0
  }
  convolution_param {
    num_output: 256
    pad: 1
    kernel_size: 3
    group: 2
    weight_filler {
      type: "gaussian"
      std: 0.01
    }
    bias_filler {
      type: "constant"
      value: 1
    }
  }
}
layer {
  name: "relu5"
  type: "ReLU"
  bottom: "conv5"
  top: "conv5"
}
layer {
  name: "pool5"
  type: "Pooling"
  bottom: "conv5"
  top: "pool5"
  pooling_param {
    pool: MAX
    kernel_size: 3
    stride: 2
  }
}
layer {
  name: "fc6"
  type: "InnerProduct"
  bottom: "pool5"
  top: "fc6"
  param {
    lr_mult: 1
    decay_mult: 1
  }
  param {
    lr_mult: 2
    decay_mult: 0
  }
  inner_product_param {
    num_output: 4096
    weight_filler {
      type: "gaussian"
      std: 0.005
    }
    bias_filler {
      type: "constant"
      value: 1
    }
  }
}
layer {
  name: "relu6"
  type: "ReLU"
  bottom: "fc6"
  top: "fc6"
}
layer {
  name: "drop6"
  type: "Dropout"
  bottom: "fc6"
  top: "fc6"
  dropout_param {
    dropout_ratio: 0.5
  }
}
layer {
  name: "fc7"
  type: "InnerProduct"
  bottom: "fc6"
  top: "fc7"
  param {
    lr_mult: 1
    decay_mult: 1
  }
  param {
    lr_mult: 2
    decay_mult: 0
  }
  inner_product_param {
    num_output: 4096
    weight_filler {
      type: "gaussian"
      std: 0.005
    }
    bias_filler {
      type: "constant"
      value: 1
    }
  }
}
layer {
  name: "relu7"
  type: "ReLU"
  bottom: "fc7"
  top: "fc7"
}
layer {
  name: "drop7"
  type: "Dropout"
  bottom: "fc7"
  top: "fc7"
  dropout_param {
    dropout_ratio: 0.5
  }
}
layer {
  name: "fc8_kevin"
  type: "InnerProduct"
  bottom: "fc7"
  top: "fc8_kevin"
  param {
    lr_mult: 1
    decay_mult: 1
  }
  param {
    lr_mult: 2
    decay_mult: 0
  }
  inner_product_param {
    num_output: 48
    weight_filler {
      type: "gaussian"
      std: 0.005
    }
    bias_filler {
      type: "constant"
      value: 1
    }
  }
}
layer {
  name: "fc8_kevin_encode"
  type: "Sigmoid"
  bottom: "fc8_kevin"
  top: "fc8_kevin_encode"
}
layer {
  name: "fc8_pascal"
  type: "InnerProduct"
  bottom: "fc8_kevin_encode"
  top: "fc8_pascal"
  param {
    lr_mult: 10
    decay_mult: 1
  }
  param {
    lr_mult: 20
    decay_mult: 0
  }
  inner_product_param {
    num_output: 10
    weight_filler {
      type: "gaussian"
      std: 0.01
    }
    bias_filler {
      type: "constant"
      value: 0
    }
  }
}
layer {
  name: "prob"
  type: "Softmax"
  bottom: "fc8_pascal"
  top: "prob"
}
layer {
  name: "accuracy"
  type: "Accuracy"
  bottom: "prob"
  bottom: "label"
  top: "accuracy"
}
I0121 23:14:02.257148 22726 layer_factory.hpp:77] Creating layer data
I0121 23:14:08.356602 22726 db_leveldb.cpp:18] Opened leveldb cifar10_val_leveldb
I0121 23:14:08.364027 22726 net.cpp:84] Creating Layer data
I0121 23:14:08.364060 22726 net.cpp:380] data -> data
I0121 23:14:08.364084 22726 net.cpp:380] data -> label
I0121 23:14:08.364094 22726 data_transformer.cpp:27] Loading mean file from: ../../data/ilsvrc12/imagenet_mean.binaryproto
I0121 23:14:08.365206 22726 data_layer.cpp:45] output data size: 32,3,227,227
I0121 23:14:08.395588 22726 net.cpp:122] Setting up data
I0121 23:14:08.395637 22726 net.cpp:129] Top shape: 32 3 227 227 (4946784)
I0121 23:14:08.395653 22726 net.cpp:129] Top shape: 32 (32)
I0121 23:14:08.395663 22726 net.cpp:137] Memory required for data: 19787264
I0121 23:14:08.395673 22726 layer_factory.hpp:77] Creating layer conv1
I0121 23:14:08.395706 22726 net.cpp:84] Creating Layer conv1
I0121 23:14:08.395764 22726 net.cpp:406] conv1 <- data
I0121 23:14:08.395822 22726 net.cpp:380] conv1 -> conv1
I0121 23:14:08.399608 22726 net.cpp:122] Setting up conv1
I0121 23:14:08.399628 22726 net.cpp:129] Top shape: 32 96 55 55 (9292800)
I0121 23:14:08.399633 22726 net.cpp:137] Memory required for data: 56958464
I0121 23:14:08.399658 22726 layer_factory.hpp:77] Creating layer relu1
I0121 23:14:08.399672 22726 net.cpp:84] Creating Layer relu1
I0121 23:14:08.399677 22726 net.cpp:406] relu1 <- conv1
I0121 23:14:08.399685 22726 net.cpp:367] relu1 -> conv1 (in-place)
I0121 23:14:08.399849 22726 net.cpp:122] Setting up relu1
I0121 23:14:08.399859 22726 net.cpp:129] Top shape: 32 96 55 55 (9292800)
I0121 23:14:08.399863 22726 net.cpp:137] Memory required for data: 94129664
I0121 23:14:08.399878 22726 layer_factory.hpp:77] Creating layer pool1
I0121 23:14:08.399886 22726 net.cpp:84] Creating Layer pool1
I0121 23:14:08.399906 22726 net.cpp:406] pool1 <- conv1
I0121 23:14:08.399914 22726 net.cpp:380] pool1 -> pool1
I0121 23:14:08.399968 22726 net.cpp:122] Setting up pool1
I0121 23:14:08.399976 22726 net.cpp:129] Top shape: 32 96 27 27 (2239488)
I0121 23:14:08.399981 22726 net.cpp:137] Memory required for data: 103087616
I0121 23:14:08.399984 22726 layer_factory.hpp:77] Creating layer norm1
I0121 23:14:08.399994 22726 net.cpp:84] Creating Layer norm1
I0121 23:14:08.399999 22726 net.cpp:406] norm1 <- pool1
I0121 23:14:08.400007 22726 net.cpp:380] norm1 -> norm1
I0121 23:14:08.400223 22726 net.cpp:122] Setting up norm1
I0121 23:14:08.400233 22726 net.cpp:129] Top shape: 32 96 27 27 (2239488)
I0121 23:14:08.400238 22726 net.cpp:137] Memory required for data: 112045568
I0121 23:14:08.400241 22726 layer_factory.hpp:77] Creating layer conv2
I0121 23:14:08.400254 22726 net.cpp:84] Creating Layer conv2
I0121 23:14:08.400259 22726 net.cpp:406] conv2 <- norm1
I0121 23:14:08.400266 22726 net.cpp:380] conv2 -> conv2
I0121 23:14:08.405846 22726 net.cpp:122] Setting up conv2
I0121 23:14:08.405871 22726 net.cpp:129] Top shape: 32 256 27 27 (5971968)
I0121 23:14:08.405877 22726 net.cpp:137] Memory required for data: 135933440
I0121 23:14:08.405894 22726 layer_factory.hpp:77] Creating layer relu2
I0121 23:14:08.405906 22726 net.cpp:84] Creating Layer relu2
I0121 23:14:08.405928 22726 net.cpp:406] relu2 <- conv2
I0121 23:14:08.405938 22726 net.cpp:367] relu2 -> conv2 (in-place)
I0121 23:14:08.406599 22726 net.cpp:122] Setting up relu2
I0121 23:14:08.406613 22726 net.cpp:129] Top shape: 32 256 27 27 (5971968)
I0121 23:14:08.406618 22726 net.cpp:137] Memory required for data: 159821312
I0121 23:14:08.406622 22726 layer_factory.hpp:77] Creating layer pool2
I0121 23:14:08.406631 22726 net.cpp:84] Creating Layer pool2
I0121 23:14:08.406638 22726 net.cpp:406] pool2 <- conv2
I0121 23:14:08.406646 22726 net.cpp:380] pool2 -> pool2
I0121 23:14:08.406703 22726 net.cpp:122] Setting up pool2
I0121 23:14:08.406711 22726 net.cpp:129] Top shape: 32 256 13 13 (1384448)
I0121 23:14:08.406904 22726 net.cpp:137] Memory required for data: 165359104
I0121 23:14:08.406910 22726 layer_factory.hpp:77] Creating layer norm2
I0121 23:14:08.406924 22726 net.cpp:84] Creating Layer norm2
I0121 23:14:08.406929 22726 net.cpp:406] norm2 <- pool2
I0121 23:14:08.406936 22726 net.cpp:380] norm2 -> norm2
I0121 23:14:08.407166 22726 net.cpp:122] Setting up norm2
I0121 23:14:08.407177 22726 net.cpp:129] Top shape: 32 256 13 13 (1384448)
I0121 23:14:08.407181 22726 net.cpp:137] Memory required for data: 170896896
I0121 23:14:08.407186 22726 layer_factory.hpp:77] Creating layer conv3
I0121 23:14:08.407199 22726 net.cpp:84] Creating Layer conv3
I0121 23:14:08.407203 22726 net.cpp:406] conv3 <- norm2
I0121 23:14:08.407212 22726 net.cpp:380] conv3 -> conv3
I0121 23:14:08.417320 22726 net.cpp:122] Setting up conv3
I0121 23:14:08.417341 22726 net.cpp:129] Top shape: 32 384 13 13 (2076672)
I0121 23:14:08.417346 22726 net.cpp:137] Memory required for data: 179203584
I0121 23:14:08.417371 22726 layer_factory.hpp:77] Creating layer relu3
I0121 23:14:08.417392 22726 net.cpp:84] Creating Layer relu3
I0121 23:14:08.417408 22726 net.cpp:406] relu3 <- conv3
I0121 23:14:08.417418 22726 net.cpp:367] relu3 -> conv3 (in-place)
I0121 23:14:08.417613 22726 net.cpp:122] Setting up relu3
I0121 23:14:08.417623 22726 net.cpp:129] Top shape: 32 384 13 13 (2076672)
I0121 23:14:08.417637 22726 net.cpp:137] Memory required for data: 187510272
I0121 23:14:08.417647 22726 layer_factory.hpp:77] Creating layer conv4
I0121 23:14:08.417670 22726 net.cpp:84] Creating Layer conv4
I0121 23:14:08.417685 22726 net.cpp:406] conv4 <- conv3
I0121 23:14:08.417692 22726 net.cpp:380] conv4 -> conv4
I0121 23:14:08.426447 22726 net.cpp:122] Setting up conv4
I0121 23:14:08.426477 22726 net.cpp:129] Top shape: 32 384 13 13 (2076672)
I0121 23:14:08.426484 22726 net.cpp:137] Memory required for data: 195816960
I0121 23:14:08.426498 22726 layer_factory.hpp:77] Creating layer relu4
I0121 23:14:08.426512 22726 net.cpp:84] Creating Layer relu4
I0121 23:14:08.426517 22726 net.cpp:406] relu4 <- conv4
I0121 23:14:08.426527 22726 net.cpp:367] relu4 -> conv4 (in-place)
I0121 23:14:08.427609 22726 net.cpp:122] Setting up relu4
I0121 23:14:08.427623 22726 net.cpp:129] Top shape: 32 384 13 13 (2076672)
I0121 23:14:08.427628 22726 net.cpp:137] Memory required for data: 204123648
I0121 23:14:08.427634 22726 layer_factory.hpp:77] Creating layer conv5
I0121 23:14:08.427649 22726 net.cpp:84] Creating Layer conv5
I0121 23:14:08.427654 22726 net.cpp:406] conv5 <- conv4
I0121 23:14:08.427664 22726 net.cpp:380] conv5 -> conv5
I0121 23:14:08.434486 22726 net.cpp:122] Setting up conv5
I0121 23:14:08.434510 22726 net.cpp:129] Top shape: 32 256 13 13 (1384448)
I0121 23:14:08.434515 22726 net.cpp:137] Memory required for data: 209661440
I0121 23:14:08.434535 22726 layer_factory.hpp:77] Creating layer relu5
I0121 23:14:08.434566 22726 net.cpp:84] Creating Layer relu5
I0121 23:14:08.434572 22726 net.cpp:406] relu5 <- conv5
I0121 23:14:08.434581 22726 net.cpp:367] relu5 -> conv5 (in-place)
I0121 23:14:08.434751 22726 net.cpp:122] Setting up relu5
I0121 23:14:08.434761 22726 net.cpp:129] Top shape: 32 256 13 13 (1384448)
I0121 23:14:08.434764 22726 net.cpp:137] Memory required for data: 215199232
I0121 23:14:08.434768 22726 layer_factory.hpp:77] Creating layer pool5
I0121 23:14:08.434787 22726 net.cpp:84] Creating Layer pool5
I0121 23:14:08.434792 22726 net.cpp:406] pool5 <- conv5
I0121 23:14:08.434799 22726 net.cpp:380] pool5 -> pool5
I0121 23:14:08.434854 22726 net.cpp:122] Setting up pool5
I0121 23:14:08.434861 22726 net.cpp:129] Top shape: 32 256 6 6 (294912)
I0121 23:14:08.434865 22726 net.cpp:137] Memory required for data: 216378880
I0121 23:14:08.434870 22726 layer_factory.hpp:77] Creating layer fc6
I0121 23:14:08.434880 22726 net.cpp:84] Creating Layer fc6
I0121 23:14:08.434885 22726 net.cpp:406] fc6 <- pool5
I0121 23:14:08.434892 22726 net.cpp:380] fc6 -> fc6
I0121 23:14:08.750818 22726 net.cpp:122] Setting up fc6
I0121 23:14:08.750844 22726 net.cpp:129] Top shape: 32 4096 (131072)
I0121 23:14:08.750888 22726 net.cpp:137] Memory required for data: 216903168
I0121 23:14:08.750903 22726 layer_factory.hpp:77] Creating layer relu6
I0121 23:14:08.750918 22726 net.cpp:84] Creating Layer relu6
I0121 23:14:08.750926 22726 net.cpp:406] relu6 <- fc6
I0121 23:14:08.750936 22726 net.cpp:367] relu6 -> fc6 (in-place)
I0121 23:14:08.751214 22726 net.cpp:122] Setting up relu6
I0121 23:14:08.751226 22726 net.cpp:129] Top shape: 32 4096 (131072)
I0121 23:14:08.751230 22726 net.cpp:137] Memory required for data: 217427456
I0121 23:14:08.751235 22726 layer_factory.hpp:77] Creating layer drop6
I0121 23:14:08.751243 22726 net.cpp:84] Creating Layer drop6
I0121 23:14:08.751250 22726 net.cpp:406] drop6 <- fc6
I0121 23:14:08.751256 22726 net.cpp:367] drop6 -> fc6 (in-place)
I0121 23:14:08.751299 22726 net.cpp:122] Setting up drop6
I0121 23:14:08.751307 22726 net.cpp:129] Top shape: 32 4096 (131072)
I0121 23:14:08.751310 22726 net.cpp:137] Memory required for data: 217951744
I0121 23:14:08.751314 22726 layer_factory.hpp:77] Creating layer fc7
I0121 23:14:08.751324 22726 net.cpp:84] Creating Layer fc7
I0121 23:14:08.751329 22726 net.cpp:406] fc7 <- fc6
I0121 23:14:08.751336 22726 net.cpp:380] fc7 -> fc7
I0121 23:14:08.892030 22726 net.cpp:122] Setting up fc7
I0121 23:14:08.892067 22726 net.cpp:129] Top shape: 32 4096 (131072)
I0121 23:14:08.892074 22726 net.cpp:137] Memory required for data: 218476032
I0121 23:14:08.892089 22726 layer_factory.hpp:77] Creating layer relu7
I0121 23:14:08.892102 22726 net.cpp:84] Creating Layer relu7
I0121 23:14:08.892117 22726 net.cpp:406] relu7 <- fc7
I0121 23:14:08.892128 22726 net.cpp:367] relu7 -> fc7 (in-place)
I0121 23:14:08.892436 22726 net.cpp:122] Setting up relu7
I0121 23:14:08.892448 22726 net.cpp:129] Top shape: 32 4096 (131072)
I0121 23:14:08.892453 22726 net.cpp:137] Memory required for data: 219000320
I0121 23:14:08.892457 22726 layer_factory.hpp:77] Creating layer drop7
I0121 23:14:08.892467 22726 net.cpp:84] Creating Layer drop7
I0121 23:14:08.892472 22726 net.cpp:406] drop7 <- fc7
I0121 23:14:08.892480 22726 net.cpp:367] drop7 -> fc7 (in-place)
I0121 23:14:08.892524 22726 net.cpp:122] Setting up drop7
I0121 23:14:08.892532 22726 net.cpp:129] Top shape: 32 4096 (131072)
I0121 23:14:08.892536 22726 net.cpp:137] Memory required for data: 219524608
I0121 23:14:08.892539 22726 layer_factory.hpp:77] Creating layer fc8_kevin
I0121 23:14:08.892550 22726 net.cpp:84] Creating Layer fc8_kevin
I0121 23:14:08.892555 22726 net.cpp:406] fc8_kevin <- fc7
I0121 23:14:08.892563 22726 net.cpp:380] fc8_kevin -> fc8_kevin
I0121 23:14:08.894253 22726 net.cpp:122] Setting up fc8_kevin
I0121 23:14:08.894264 22726 net.cpp:129] Top shape: 32 48 (1536)
I0121 23:14:08.894268 22726 net.cpp:137] Memory required for data: 219530752
I0121 23:14:08.894276 22726 layer_factory.hpp:77] Creating layer fc8_kevin_encode
I0121 23:14:08.894286 22726 net.cpp:84] Creating Layer fc8_kevin_encode
I0121 23:14:08.894291 22726 net.cpp:406] fc8_kevin_encode <- fc8_kevin
I0121 23:14:08.894299 22726 net.cpp:380] fc8_kevin_encode -> fc8_kevin_encode
I0121 23:14:08.895038 22726 net.cpp:122] Setting up fc8_kevin_encode
I0121 23:14:08.895051 22726 net.cpp:129] Top shape: 32 48 (1536)
I0121 23:14:08.895054 22726 net.cpp:137] Memory required for data: 219536896
I0121 23:14:08.895068 22726 layer_factory.hpp:77] Creating layer fc8_pascal
I0121 23:14:08.895078 22726 net.cpp:84] Creating Layer fc8_pascal
I0121 23:14:08.895084 22726 net.cpp:406] fc8_pascal <- fc8_kevin_encode
I0121 23:14:08.895092 22726 net.cpp:380] fc8_pascal -> fc8_pascal
I0121 23:14:08.895207 22726 net.cpp:122] Setting up fc8_pascal
I0121 23:14:08.895216 22726 net.cpp:129] Top shape: 32 10 (320)
I0121 23:14:08.895220 22726 net.cpp:137] Memory required for data: 219538176
I0121 23:14:08.895232 22726 layer_factory.hpp:77] Creating layer prob
I0121 23:14:08.895241 22726 net.cpp:84] Creating Layer prob
I0121 23:14:08.895246 22726 net.cpp:406] prob <- fc8_pascal
I0121 23:14:08.895253 22726 net.cpp:380] prob -> prob
I0121 23:14:08.895499 22726 net.cpp:122] Setting up prob
I0121 23:14:08.895509 22726 net.cpp:129] Top shape: 32 10 (320)
I0121 23:14:08.895514 22726 net.cpp:137] Memory required for data: 219539456
I0121 23:14:08.895517 22726 layer_factory.hpp:77] Creating layer accuracy
I0121 23:14:08.895525 22726 net.cpp:84] Creating Layer accuracy
I0121 23:14:08.895530 22726 net.cpp:406] accuracy <- prob
I0121 23:14:08.895535 22726 net.cpp:406] accuracy <- label
I0121 23:14:08.895543 22726 net.cpp:380] accuracy -> accuracy
…
